NN_BestNumFeatures20_epochs_143.pt (torch, 142831 bytes, 7 tensors)

layer_1.weight f4 [128, 13]
0	0xc1033533	-8.200488
1	0x40364dbf	2.8484952
2	0xc0619713	-3.5248458
3	0x3fbad982	1.4597628
4	0x3ea10c5c	0.31454742
5	0xbf354e4c	-0.70822597
6	0x403ed544	2.9817667
7	0x401cc175	2.4493077
8	0xc035a5af	-2.8382375
9	0xbfd30dae	-1.648855
10	0xc0bf2215	-5.9729104
11	0x3ac2b920	0.0014856197
12	0xbe00952d	-0.12556906
13	0xbe9e0bc5	-0.30868354
14	0x3f3c24ed	0.73493844
15	0xc0f5ffc4	-7.6874714
16	0x3fc3ddd0	1.5302067
17	0x402ea8a7	2.7290437
18	0x40435cef	3.0525472
19	0x4073e893	3.8110702
20	0x4088e9f6	4.2785597
21	0xc0dcab6e	-6.8959265
22	0xc0d1c0c4	-6.554781
23	0xc1067c4a	-8.405344
24	0x3f86c826	1.052983
25	0xbffbc340	-1.966896
26	0xc0637b6e	-3.5544086
27	0x3dd400c3	0.10351708
28	0x3f74aea6	0.9557899
29	0xbf2a2d8f	-0.66475767
30	0x3ebc4e72	0.367786
31	0x3fb25d3a	1.39347
32	0xbe8b2e50	-0.2718377
33	0x3dbdee25	0.09273938
34	0xc00631ac	-2.0967817
35	0xc01b8b00	-2.430359
36	0xbfc11d26	-1.508702
37	0xbf75d470	-0.9602728
38	0x3ef1afa9	0.4720433
39	0xc0ca0eb4	-6.314295
40	0x3f6edd78	0.93306684
41	0xc096a354	-4.7074375
42	0xbfde662f	-1.7374934
43	0xc0104748	-2.2543507
44	0xbfe32368	-1.774518
45	0xc0a58c29	-5.1733594
46	0xc081da76	-4.0579176
47	0xc0977e72	-4.734185
48	0xc098f3fd	-4.7797837
49	0xc0977850	-4.7334366
50	0xbfc8962a	-1.5670826
51	0xbebc7696	-0.36809224
52	0xbf6b92b3	-0.9202072
53	0x3ff2d0bf	1.8969954
54	0xbf9e031e	-1.2344701
55	0xc0de4197	-6.9455066
56	0x40074280	2.1134338
57	0x3e9f0c02	0.3106385
58	0x3de80249	0.11328561
59	0x3f88ed9f	1.0697516
60	0xbf6cf4a8	-0.92560816
61	0xbff3e451	-1.9054052
62	0x3fad87c5	1.3557059
63	0x3fea389a	1.8298523
64	0xbe5e6057	-0.21716438
65	0x3c804dcb	0.015662095
66	0xbebe6e93	-0.37193736
67	0xbf7c85e3	-0.98641795
68	0xc0d9700c	-6.7949276
69	0x3f205e80	0.62644196
70	0x3f9bd608	1.2174692
71	0xbf4c9dfd	-0.7992857
72	0xbea87726	-0.32903403
73	0xc0655f1f	-3.5839307
74	0xc064521b	-3.5675113
75	0xc0a42162	-5.129075
76	0x3f0b982e	0.5452908
77	0xbf0ae31b	-0.54252785
78	0xbf11bc8b	-0.5692832
79	0xbe05f8b2	-0.13083151
80	0xbf97005a	-1.1796982
81	0xbfe111f3	-1.7583603
82	0x3f5a48db	0.8526742
83	0x3f09ccff	0.53828424
84	0x3ecae8c2	0.39630705
85	0x3f294bfa	0.66131556
86	0xbf47ed2e	-0.7809628
87	0xbf7803c5	-0.9688075
88	0xbf7e023f	-0.9922218
89	0xbedd96d8	-0.43279147
90	0x3e058a1c	0.13040966
91	0x3f0cfeeb	0.55076474
92	0xbec96f26	-0.39342612
93	0x40a74e5b	5.228315
94	0xc04b3acf	-3.1754644
95	0xc00dbd18	-2.2146664
96	0xc013cf9b	-2.3095462
97	0xc073e965	-3.8111203
98	0xc06440d1	-3.566456
99	0xc0cf66e4	-6.48131
100	0xc09d2c35	-4.9116464
101	0xc131fb2f	-11.123824
102	0x4034a8e5	2.8228085
103	0xc02b1655	-2.673238
104	0xbf7a6b9a	-0.97820437
105	0xbe27c91a	-0.16385308
106	0xbe921df8	-0.2853849
107	0xbe7d7f10	-0.24755502
108	0x3f22ece3	0.6364271
109	0x3ea76042	0.32690626
110	0xbeb944e1	-0.36185363
111	0xbe5a9511	-0.21345927
112	0xbf447a26	-0.76748884
113	0xbf23bb98	-0.6395812
114	0xbed1f667	-0.41008303
115	0xbe786de4	-0.2426067
116	0x3f19be57	0.6005606
117	0x40042a70	2.0650902
118	0xc090de87	-4.527164
119	0x40b7630a	5.7308397
120	0xc0a6d2a1	-5.2132115
121	0x40a904ea	5.28185
122	0xc0117b4b	-2.2731502
123	0xc0a8628a	-5.2620287
124	0xc0899628	-4.2995796
125	0xbfe2472a	-1.7677968
126	0xc079b302	-3.9015508
127	0x402c91c5	2.696397
128	0x3fd892b7	1.6919774
129	0xbebe0336	-0.37111825
130	0xc1911c70	-18.138885
131	0x3f84c26d	1.0371834
132	0x3fadabf9	1.3568107
133	0xbfb00091	-1.3750173
134	0xbf910506	-1.1329658
135	0xbe6dd7c9	-0.23226847
136	0xbf2e2841	-0.6803017
137	0xbdd2ed9e	-0.10299228
138	0xc058be6d	-3.3866227
139	0xc0634ecb	-3.5516841
140	0xc0743632	-3.8158078
141	0xbf24e991	-0.64418894
142	0xc000705a	-2.0068574
143	0xbf16c2ca	-0.58890975
144	0xbc9a1318	-0.018807933
145	0xbe407e37	-0.18798147
146	0xbea862a2	-0.3288775
147	0x3eb21f32	0.34789425
148	0x3ed6667f	0.41875073
149	0x3e1e2141	0.15442373
150	0x3da050dd	0.078279234
151	0xbf6fa1a0	-0.93605995
152	0xbf0f11f8	-0.55886793
153	0xbf5bae1d	-0.8581255
154	0xbf102574	-0.5630715
155	0x3d6e7ff7	0.058227506
156	0xc070b9ea	-3.7613473
157	0xc121c7dc	-10.111294
158	0xc09abfad	-4.835898
159	0x3fe44eba	1.7836525
160	0xc05432ab	-3.3155925
161	0xbff6d5ab	-1.9283956
162	0x3eb278d9	0.34857824
163	0xbee7cbd3	-0.45272693
164	0xbe2cb4a5	-0.16865785
165	0x3f30685b	0.68909234
166	0xbfa06173	-1.2529739
167	0x40573676	3.362699
168	0xbd9172e6	-0.07101993
169	0x3f2036c1	0.6258355
170	0xc08b4727	-4.3524356
171	0x3f944f7d	1.1586758
172	0xc08b2398	-4.348095
173	0xbed06a2e	-0.4070601
174	0xbf097594	-0.53695035
175	0x3f9802f1	1.1875898
176	0x3f1c5e65	0.61081535
177	0xc03e352d	-2.9719956
178	0xc03a0bc2	-2.9069676
179	0xc05dcf9f	-3.4657972
180	0xc0e26a51	-7.075478
181	0x40885abe	4.261077
182	0xc12598c9	-10.349801
183	0xc10b4d7c	-8.706417
184	0xc0913603	-4.537843
185	0xc0a4bc76	-5.1480055
186	0x3ebe73b2	0.37197644
187	0xc0a0286c	-5.0049343
188	0x3efbd90f	0.4918904
189	0xc048e4cc	-3.1389647
190	0x3f41d314	0.75712705
191	0x402fe007	2.7480485
192	0xc108ddb2	-8.554125
193	0x3ff39c50	1.9032078
194	0x3ea90b83	0.33016595
195	0xbebb6bb7	-0.36605617
196	0x3f411d99	0.7543579
197	0x3f57a47c	0.8423536
198	0xc02223a2	-2.5334249
199	0xbf2f3e0a	-0.6845404
200	0x3ec0ee89	0.37681988
201	0xbf08ee94	-0.5348904
202	0xbe600444	-0.21876627
203	0xbf82f958	-1.0232344
204	0xbf8055b8	-1.0026159
205	0xbf95959b	-1.1686281
206	0x3f8bb97d	1.0915982
207	0x3f6eb0ca	0.9323851
208	0xbf5ee2fa	-0.8706509
209	0x3f80dd34	1.0067506
210	0xc0140ac5	-2.3131573
211	0xc08a5621	-4.323014
212	0x3e1a1619	0.15047492
213	0x4003ac70	2.0573997
214	0xbf59d14b	-0.8508498
215	0xbc547e53	-0.012969571
216	0xc01528fc	-2.3306265
217	0xc018fe0f	-2.3905065
218	0xc010aed6	-2.2606711
219	0xc011c640	-2.2777252
220	0xbf409a34	-0.75235295
221	0xc05a36e9	-3.4096014
222	0xbe175ccb	-0.14781491
223	0x3fd17e07	1.6366585
224	0xc002d03a	-2.0439591
225	0xc031e2b9	-2.779463
226	0xbf3d355d	-0.7390955
227	0x3d9a9170	0.07547271
228	0xbe5c89c5	-0.2153693
229	0xbf101cd4	-0.5629399
230	0xbedb6a6a	-0.42854625
231	0xc013dff9	-2.3105452
232	0xc032460b	-2.785525
233	0x3f040332	0.51567376
234	0xc0bd163f	-5.9089656
235	0xc132bd66	-11.17124
236	0xc10da159	-8.8518915
237	0xc06a6126	-3.6621795
238	0x3fd63a1d	1.6736485
239	0xbf95fd5d	-1.1717945
240	0x3f14ea07	0.581696
241	0x3eea0baf	0.4571204
242	0xc0a5b3fd	-5.178221
243	0xc0d87ae8	-6.765003
244	0x3f34bac1	0.70597464
245	0xbe5640b9	-0.20923127
246	0x3e73daed	0.23813982
247	0xc09e1faf	-4.9413676
248	0xbea5c033	-0.323732
249	0xc0287eee	-2.6327472
250	0xbf4b5df1	-0.7944022
251	0x40348de4	2.8211603
252	0xbff15637	-1.8854436
253	0x3f7819bd	0.96914274
254	0xbe84debd	-0.25951186
255	0xc03609cb	-2.8443477

layer_1.bias f4 [128]
0	0xc0ba7456	-5.826701
1	0xc096851d	-4.703749
2	0xc0ed95f4	-7.424555
3	0xc028d59f	-2.6380384
4	0x40415c55	3.0212605
5	0xc0ba122d	-5.8147187
6	0xc07a5638	-3.9115124
7	0xc0a2ceee	-5.08776
8	0xc052c394	-3.2931871
9	0xc0c95368	-6.2914314
10	0xc0b137e3	-5.538072
11	0xc04fcf29	-3.247019
12	0xc07a69da	-3.9127107
13	0xbfa6dd38	-1.3036261
14	0xbf4ec2e4	-0.8076613
15	0xc0e0543f	-7.010284
16	0xc111a25a	-9.102137
17	0xc0dc676f	-6.887626
18	0x3e594e9f	0.21221398
19	0x403fa781	2.9945986
20	0xc095ed51	-4.6852193
21	0xc08c8dea	-4.3923235
22	0xc074acb2	-3.8230405
23	0xc0434226	-3.0509124
24	0xc0c37331	-6.1078115
25	0xc0f91f38	-7.785061
26	0xc0f4c4bd	-7.649016
27	0xc0890847	-4.2822604
28	0xc0fa6bb3	-7.825647
29	0xc08df86e	-4.436576
30	0xc11995e2	-9.5990925
31	0xc11ab674	-9.669544
32	0xc095cdd5	-4.681376
33	0xbfd9d961	-1.7019464
34	0xc0b37b7f	-5.608825
35	0xc126abd1	-10.416947
36	0xc071c1ea	-3.7774606
37	0xc135d6d2	-11.364946
38	0xc0e6af4e	-7.2088995
39	0xc12f4814	-10.955097
40	0xc069bcaa	-3.6521401
41	0x3f850357	1.0391644
42	0xc13132d3	-11.074908
43	0xc0981546	-4.752597
44	0xc0f69e12	-7.7067957
45	0xc085d545	-4.182284
46	0xc0f95bdd	-7.792464
47	0xc1093378	-8.575066
48	0x400821f7	2.127073
49	0xbf25e4e9	-0.64802414
50	0xc07ea125	-3.9785855
51	0xc12d108a	-10.816538
52	0xbf93c8c3	-1.1545643
53	0xc0c40d5c	-6.126631
54	0x403ad502	2.919251
55	0xc088766f	-4.264457
56	0xc088ad61	-4.2711644
57	0x3e43ad16	0.19108996
58	0xc03455f4	-2.8177462
59	0xc0cad26d	-6.3381867
60	0xbf89b301	-1.0757753
61	0xc0f8a3d1	-7.769997
62	0xc143beb8	-12.234062
63	0xc0a22dfc	-5.0681133
64	0xc0e1e6f7	-7.059444
65	0xc069ca78	-3.6529827
66	0xc05eea5d	-3.4830544
67	0xbf8fa1be	-1.1221235
68	0xc0a3c7b2	-5.118127
69	0x3d806ac4	0.06270364
70	0x4082592a	4.0733843
71	0xbfde8058	-1.7382917
72	0xc0ae6f30	-5.4510727
73	0xc0b38fef	-5.61132
74	0xc1019037	-8.097709
75	0xc0862a1a	-4.1926394
76	0xc10ccc1c	-8.799831
77	0xc0510924	-3.266183
78	0xbf26b1b8	-0.6511493
79	0xc10dc2c6	-8.860052
80	0xc0857521	-4.170548
81	0xc05e0161	-3.4688342
82	0xc0ea9ac3	-7.331392
83	0xc0b463a2	-5.637162
84	0xc0946414	-4.6372166
85	0xc0f14e05	-7.540774
86	0xbe9e7d2d	-0.30954877
87	0xc134e862	-11.306734
88	0xc0b2f425	-5.592303
89	0xc00509f4	-2.0787325
90	0xc06c3fac	-3.6913862
91	0xc08d077d	-4.407164
92	0xc0ed7c40	-7.421417
93	0x409e1869	4.9404798
94	0xc0b5b1dd	-5.677962
95	0xc134c535	-11.298146
96	0x3fbc1ee3	1.4696926
97	0xc09fe7a3	-4.997026
98	0xc0cc54dd	-6.3853593
99	0xc09c2e00	-4.880615
100	0xc0966b50	-4.7005997
101	0xbf18c656	-0.59677637
102	0xbf33fd88	-0.70308733
103	0xc0e442e6	-7.1331663
104	0xc0338e16	-2.8055472
105	0xc107c355	-8.4851885
106	0xc0901373	-4.502374
107	0x3ffd0deb	1.9769872
108	0xc1366dd1	-11.401811
109	0xc02129b3	-2.51817
110	0xc0bb4ee2	-5.8533792
111	0xc084096c	-4.12615
112	0xc0838401	-4.1098638
113	0xc0ea704b	-7.3262076
114	0xc0efc6e8	-7.4930305
115	0xc0fa80d9	-7.8282285
116	0xc00ddb78	-2.2165203
117	0xc1452061	-12.320405
118	0xbf872db5	-1.0560824
119	0xbf26b1a6	-0.6511482
120	0xc1192847	-9.572333
121	0xc08a6a4b	-4.325475
122	0x408252a5	4.0725884
123	0xc12efd1e	-10.936796
124	0xc0ab61b0	-5.3556747
125	0xc0e80cf6	-7.251582
126	0xc0a52c08	-5.161625
127	0xc0ee948b	-7.4556327

layer_2.weight f4 [128, 128]
0	0xbdaf1e6d	-0.08550725
1	0xbe904f56	-0.2818553
2	0xbe55f6b9	-0.20894898
3	0xbe9a2397	-0.30105278
4	0xbf3cb3f7	-0.73712105
5	0xbec3330d	-0.38124886
6	0x3d90334d	0.07041035
7	0x3e496a04	0.19669348
8	0xbcc84419	-0.024446534
9	0xbf79ea19	-0.9762283
10	0x3ebb4af3	0.3658062
11	0xbe09d1d0	-0.13458943
12	0xbbe1afbb	-0.006887404
13	0xbe8fc688	-0.28081155
14	0xbe8cac64	-0.27475274
15	0x3d229311	0.039691035
16	0x3ec915b0	0.3927436
17	0xbd37fbbb	-0.044917803
18	0xbe309402	-0.1724396
19	0xbe15765d	-0.14595933
20	0xbf57b251	-0.84256464
21	0xbeb09406	-0.34487933
22	0xbe9fd1b6	-0.31214684
23	0xbe12fe29	-0.14354767
24	0x3d0316a0	0.032004
25	0x3e5d9cb5	0.2164181
26	0xbdaba903	-0.08381846
27	0xbf004b37	-0.5011477
28	0xbe801dc6	-0.25022715
29	0x3df454e1	0.11930252
30	0x3f7a44be	0.9776114
31	0x3e1ed4cc	0.15510863
32	0xbf4b4988	-0.79409075
33	0xbf318b02	-0.69352734
34	0xbd08dcfd	-0.033413876
35	0x3e018e1b	0.12651865
36	0x3e228ab7	0.15873228
37	0xbc05e94d	-0.008173299
38	0xbf82e3d1	-1.0225774
39	0xbde6b9e9	-0.11265928
40	0xbf5d4acc	-0.86442256
41	0xbe19f69c	-0.1503548
42	0xbe8fcdaf	-0.28086612
43	0xbe4de6ed	-0.20107622
44	0x3e49bca4	0.19700867
45	0xbf78c0d5	-0.9716924
46	0xbf8ddd15	-1.1083094
47	0x3f60f99e	0.87880886
48	0xbfadeb00	-1.3587341
49	0x3d305008	0.043045074
50	0x3f3c9e2f	0.7367887
51	0x3d6a583d	0.057213057
52	0xbe9918e6	-0.29901809
53	0xbe5fc23e	-0.21851441
54	0xbf21f701	-0.63267523
55	0xbdb2094d	-0.0869318
56	0xbd13ccc8	-0.036083966
57	0xbdcf1599	-0.10111541
58	0xbf092e6c	-0.5358646
59	0xbf491585	-0.7854846
60	0xbf376e93	-0.716531
61	0x3ecc6ebb	0.3992823
62	0xbe87c2d8	-0.2651584
63	0x3e85b1dd	0.2611226
64	0xbd0084ef	-0.031376775
65	0x3e1e3648	0.15450394
66	0xbe3bd411	-0.18342616
67	0xbf6b0809	-0.91809136
68	0xbdd0523f	-0.10171937
69	0xbeed79e4	-0.46382058
70	0xbf182f25	-0.59446937
71	0xbcef3809	-0.029201524
72	0xbdabf2ce	-0.08395921
73	0xbeeebf81	-0.4663048
74	0x3f21d867	0.6322083
75	0xbe46d09b	-0.19415514
76	0xbde6a38a	-0.11261661
77	0xbf253cef	-0.645461
78	0x3d2cf1f3	0.04222293
79	0x3f0e1837	0.555057
80	0x3eae2241	0.3401051
81	0xbd922d44	-0.0713754
82	0xbdd011a9	-0.101596184
83	0xbf33b87e	-0.7020339
84	0xbe6a3227	-0.22870694
85	0x3ebc1a77	0.3673894
86	0xbd95d0d6	-0.07315223
87	0xbcdfea1b	-0.02733331
88	0x3c49a8b7	0.012308291
89	0xbe9f7776	-0.3114583
90	0xbebbfe2c	-0.36717355
91	0xbe9e59e3	-0.30927953
92	0x3d8cf77e	0.06883143
93	0xbf9a4375	-1.2051836
94	0x3ee82ce5	0.45346752
95	0x3cf173f7	0.029474242
96	0xbf4bd838	-0.796268
97	0xbee34707	-0.44390127
98	0x3e564515	0.2092479
99	0xbee70708	-0.45122552
100	0xbeeee69a	-0.4666031
101	0xbf02e01f	-0.5112323
102	0xbf05ce5a	-0.5226799
103	0x3e3b85ef	0.1831281
104	0xbf03fc01	-0.515564
105	0x3eb33721	0.35002998
106	0xbe8690aa	-0.26282245
107	0xbf4d2c04	-0.8014529
108	0xbeaaa455	-0.333285
109	0xbeaf7a87	-0.34273168
110	0xbf49c1f2	-0.7881156
111	0x3dd61c99	0.10454673
112	0x3f30081e	0.68762386
113	0xbeed4039	-0.4633806
114	0xbc0bc10b	-0.008529912
115	0x3f0dbc02	0.55365
116	0x3cb2b199	0.0218132
117	0x3e698d52	0.22807816
118	0xbe533a0d	-0.20627613
119	0xbf38d3a0	-0.72197914
120	0x3eed5a6d	0.46358052
121	0x3dedad87	0.11605363
122	0xbde894d2	-0.1135651
123	0x3e1181d3	0.1420968
124	0xbfaaac2d	-1.3333794
125	0xbf38290b	-0.71937627
126	0xbb3d03ee	-0.0028841454
127	0xbeef957a	-0.4679373
128	0xbefb8089	-0.49121502
129	0x3f24526b	0.6418826
130	0xbf816825	-1.0109907
131	0xbfa77f6a	-1.3085759
132	0xbfc9cc22	-1.5765421
133	0x3dcd55b3	0.100261115
134	0xbde40cad	-0.1113523
135	0xbf27d92e	-0.65565765
136	0xbfd38bd8	-1.6527052
137	0xbf14d7ed	-0.58141977
138	0xbd383323	-0.044970643
139	0x3c66bae6	0.014082646
140	0xbeb15930	-0.34638357
141	0x3de81346	0.11331801
142	0xbf34bc83	-0.70600146
143	0xbd51b304	-0.051196113
144	0x3e00401d	0.12524457
145	0xbe398818	-0.18118322
146	0xbecb047d	-0.39651862
147	0xbff1efbc	-1.8901286
148	0xbf4cbb53	-0.79973334
149	0x3dad623f	0.084660046
150	0x3efc33cc	0.49258268
151	0xbe5ffc1c	-0.21873516
152	0xbf2a0720	-0.6641712
153	0xbe39c557	-0.18141685
154	0xbf0833ed	-0.5320423
155	0x3e8019d1	0.25019696
156	0x3d34037a	0.043948628
157	0xbe83cdb4	-0.25742877
158	0xbe0f96ff	-0.14022444
159	0x3e392ae4	0.18082768
160	0xbf401f6d	-0.7504795
161	0xbf1bdbbe	-0.60882175
162	0x3d8a31ba	0.06747766
163	0x3e5f74f6	0.21821961
164	0xbe2dcc2a	-0.16972414
165	0x3f0cfcaf	0.55073065
166	0xbe8953f7	-0.26821873
167	0xbe78477d	-0.2424602
168	0xbf8aa70e	-1.0832231
169	0xbeecb29c	-0.46230018
170	0xbba3f185	-0.0050031566
171	0x3ccd1d68	0.025038436
172	0xbdc5260c	-0.096263975
173	0xbf0a85a8	-0.54110193
174	0xbbe3218d	-0.00693149
175	0xbc13cd2f	-0.009021088
176	0xbf08e655	-0.5347646
177	0x3ea90bc3	0.33016786
178	0xbc3c3ead	-0.011489552
179	0xbeb38f4e	-0.3507027
180	0x3d62599a	0.055261232
181	0x3df04e40	0.11733675
182	0xbfd70217	-1.6797513
183	0xbe96816c	-0.29395616
184	0xbf79649f	-0.9741916
185	0xbf6e4d8c	-0.9308708
186	0xbf90b8ce	-1.1306398
187	0xbee125b0	-0.43974066
188	0x3d47ee1c	0.048811063
189	0xbd1d4a2c	-0.038400814
190	0xbd2509be	-0.040292494
191	0xbf0a53d6	-0.54034173
192	0xbe7c6711	-0.24648692
193	0x3e20d7b2	0.15707281
194	0x3eb2c39d	0.34914866
195	0xbfd1e81c	-1.6398959
196	0xbeb3a14c	-0.35083997
197	0xbf01b2f4	-0.50663686
198	0xbf4409f0	-0.76577663
199	0xbea6407d	-0.32471076
200	0xbe929cad	-0.2863516
201	0xbe98f515	-0.29874483
202	0xbf1a7bcf	-0.60345167
203	0xbd82efd7	-0.06393402
204	0xbe786743	-0.24258141
205	0xbdb3b738	-0.087751806
206	0x3d9d4bb5	0.076804556
207	0xbda45dee	-0.08025728
208	0xbe807958	-0.25092578
209	0xbf2f79aa	-0.6854502
210	0x3e9a4812	0.3013311
211	0xbf2f3079	-0.6843334
212	0xbe941de3	-0.28929052
213	0xbe407515	-0.18794663
214	0xbe85299a	-0.26008302
215	0xbed4d30a	-0.4156726
216	0x3e393efd	0.18090434
217	0xbf847b8a	-1.0350201
218	0xbd2dea3c	-0.04245971
219	0x3e42a5e6	0.19008598
220	0xbc971e20	-0.018446982
221	0xbf02131f	-0.50810426
222	0xbda0fa51	-0.07860244
223	0x3e31705e	0.17328021
224	0xbfb243d2	-1.3926947
225	0xc0064e67	-2.0985353
226	0xbe0c8126	-0.13721141
227	0xbd9a3c9e	-0.07531093
228	0xbf0b925a	-0.5452019
229	0xbf8f5c5f	-1.1200064
230	0xbe53d8bd	-0.20688148
231	0x3ea89c8d	0.3293194
232	0x3e9039ce	0.281691
233	0xbcdfa751	-0.027301462
234	0xbf0cb1a2	-0.54958546
235	0xbfeeafe6	-1.864743
236	0xbc20e6c3	-0.009820643
237	0xbef62492	-0.48074776
238	0xbe31d51b	-0.1736645
239	0xbedc0e32	-0.4297958
240	0x3ac411ce	0.001495892
241	0xbed38fc6	-0.41320628
242	0xbe8c5245	-0.27406517
243	0x3d950053	0.072754525
244	0xbf9ac97b	-1.2092737
245	0xbe6bcab0	-0.23026538
246	0x3eba8a1f	0.36433503
247	0x3da24ab9	0.079244085
248	0xbdd09fa9	-0.10186703
249	0xbbc3a44a	-0.0059705125
250	0xbef193d2	-0.4718309
251	0xbd230302	-0.03979779
252	0xbe6de7ac	-0.23232907
253	0xbeab2f6d	-0.3343462
254	0x3e470891	0.19436862
255	0x3e9467fa	0.28985578

layer_2.bias f4 [128]
0	0xbf46c616	-0.77646005
1	0xbfd45e4c	-1.6591277
2	0xbe368665	-0.17824705
3	0xbda592f8	-0.08084673
4	0xbd816188	-0.06317431
5	0xbf4b90cc	-0.7951782
6	0xbe135d4b	-0.14391057
7	0xc0d398cf	-6.6124034
8	0xbef7992a	-0.48359042
9	0x3c76fcce	0.015074922
10	0xbf552d6b	-0.8327243
11	0xbe631ecf	-0.22179721
12	0xbe17ae14	-0.148125
13	0xbe2a579d	-0.16634984
14	0xbcd89044	-0.026435979
15	0xbea51046	-0.32238978
16	0xbea712ff	-0.3263168
17	0xbe9cf02b	-0.30651984
18	0xbd8a357a	-0.06748481
19	0xbed3805e	-0.41308874
20	0x413c2065	11.757909
21	0xbecd9000	-0.40148926
22	0xbecd2bdb	-0.40072522
23	0xbe92f772	-0.2870441
24	0xbf07a8c3	-0.52991885
25	0x401f2f08	2.4872456
26	0xbe1515ec	-0.14559144
27	0xbf14d933	-0.5814392
28	0xbeaca658	-0.3372066
29	0xbe2e9c19	-0.17051734
30	0xbe95e9dc	-0.29279983
31	0xbec3e4ea	-0.38260585
32	0xbe91c142	-0.28467757
33	0xbdbc6213	-0.09198394
34	0xbdd2f465	-0.10300521
35	0xc08a4149	-4.3204694
36	0xbf47490d	-0.7784584
37	0xbf30e0a0	-0.6909275
38	0xbdab843c	-0.08374831
39	0xbef3e4f5	-0.47635618
40	0xbf1a2229	-0.60208374
41	0xbe0bf150	-0.13666272
42	0xbe702193	-0.23450308
43	0xbdb91319	-0.09036846
44	0xbe68ca62	-0.22733453
45	0xbe944a7e	-0.28963083
46	0xbdb4afdf	-0.08822607
47	0xbee00fef	-0.43762156
48	0xbd2e06b9	-0.04248688
49	0xbd8cb0d1	-0.068696626
50	0xbfcacb2a	-1.5843251
51	0xbed31daa	-0.4123357
52	0x3caa2172	0.020767901
53	0xbf908590	-1.129076
54	0xbf887d6c	-1.0663276
55	0xbf1c6d94	-0.611047
56	0xc02def5f	-2.717735
57	0xc074d41a	-3.8254457
58	0xbe8d6ed0	-0.27623606
59	0xbd3f7b36	-0.046748362
60	0xbd43fece	-0.047850423
61	0xbe99d527	-0.30045435
62	0xbeddc977	-0.43317768
63	0xbc199e69	-0.009376147
64	0xbef9715b	-0.48719296
65	0xbe9d6c04	-0.30746472
66	0x3c1395df	0.0090079
67	0xc0f363d1	-7.6059346
68	0xbd934d07	-0.07192426
69	0xc102453b	-8.141902
70	0xbf7c0ba8	-0.98455286
71	0xc11e2675	-9.884389
72	0xbf2cf283	-0.67557544
73	0xbdea8fe5	-0.11453227
74	0xbeae9fa7	-0.3410618
75	0xbf02f20f	-0.511506
76	0xbec222b3	-0.37917098
77	0xbe1642e6	-0.14673957
78	0xbe7ec52c	-0.24879903
79	0xbf126ee2	-0.57200444
80	0xbefbad0d	-0.49155465
81	0xbf17e683	-0.5933611
82	0xbeb9d660	-0.36296368
83	0xbe837049	-0.25671604
84	0xbec9281e	-0.3928842
85	0xbe22e66a	-0.15908208
86	0xbf930413	-1.1485618
87	0xbf0303d5	-0.5117772
88	0xbe89df94	-0.2692839
89	0xbd6c451c	-0.057683095
90	0xba99b14c	-0.0011725812
91	0xbec2f78d	-0.3807949
92	0xbf18d5e1	-0.59701353
93	0xbcb37faa	-0.02191146
94	0xbe65e554	-0.22450763
95	0xbec38d21	-0.3819361
96	0xbeb84a26	-0.3599407
97	0xbd6404a4	-0.05566849
98	0xbebabdcc	-0.3647293
99	0xbef6f63a	-0.4823473
100	0x40dc9b0b	6.893926
101	0xbe654746	-0.2239047
102	0xbec65d46	-0.38743037
103	0xbcaee8ff	-0.021351336
104	0xbea7cb86	-0.32772464
105	0xbecce940	-0.40021706
106	0xc08561a7	-4.1681705
107	0xc0b13e26	-5.5388365
108	0x3ed4a09f	0.41528794
109	0xbe8ef8f6	-0.27924317
110	0xbedb36bf	-0.42815205
111	0xbea9b209	-0.33143643
112	0xbe5fbdd3	-0.21849756
113	0xbe502e8a	-0.20330253
114	0xbdd3985e	-0.10331796
115	0xbf5948ad	-0.8487652
116	0xc00661da	-2.0997224
117	0xc018fd2f	-2.390453
118	0xbe8a4aa2	-0.27010065
119	0xbf05916c	-0.5217502
120	0xbece2c38	-0.4026811
121	0xbf3ba179	-0.7329326
122	0xbec4d380	-0.38442612
123	0xbe953e58	-0.29149127
124	0xbf390305	-0.7227023
125	0xbea90804	-0.33013928
126	0xbc261de7	-0.010138965
127	0xbe3dce1d	-0.18535657

layer_3.weight f4 [128, 128]
0	0x3d469a4f	0.048487004
1	0x3e842c00	0.2581482
2	0x3d170d18	0.03687772
3	0x3cd674c3	0.026178723
4	0x3d94527f	0.072422974
5	0xbc29eea6	-0.01037184
6	0xbbd76787	-0.0065736207
7	0xbce1b6b8	-0.027552947
8	0x3bd1e52c	0.0064054932
9	0x3de812e0	0.11331725
10	0x3d41c211	0.047304217
11	0xbd364fe2	-0.044509776
12	0xbc4be43b	-0.012444551
13	0xbd0e643d	-0.034763563
14	0x3c22c281	0.009934069
15	0xbddcabe5	-0.10774974
16	0xbd03e3a7	-0.032199528
17	0x3cda9c38	0.026685819
18	0xbd958a85	-0.07301811
19	0xbde97c53	-0.11400666
20	0xbf98ab96	-1.1927364
21	0x3e0d6fdb	0.138122
22	0x3d2c8fb4	0.042129233
23	0x3d997c01	0.07494355
24	0xbd64f4b2	-0.055897422
25	0xbf00891f	-0.5020923
26	0x3d9cdff3	0.076599024
27	0x3c0aa6eb	0.008462648
28	0x3db8e57f	0.09028148
29	0x3d07caf8	0.03315255
30	0x3e17b020	0.1481328
31	0x3d3f7586	0.04674294
32	0x3ec64e12	0.38731438
33	0x3d010bf6	0.031505547
34	0x3d8e870a	0.069593504
35	0xbdd3405f	-0.10315012
36	0x3ddbc623	0.10731151
37	0xbd0d3d63	-0.03448237
38	0xbe16e128	-0.14734328
39	0xbd6d9cb6	-0.05801078
40	0xbd8aabb9	-0.06771035
41	0x3dcfbd52	0.10143532
42	0xbe1fff03	-0.15624623
43	0x3c74a366	0.014931535
44	0xbc5f0017	-0.013610861
45	0x3d71133b	0.05885623
46	0xbda017fc	-0.07817075
47	0x3d328e8b	0.04359297
48	0xbc83ddd6	-0.01609699
49	0x3dc76808	0.09736639
50	0xbdb88bc4	-0.09011033
51	0xbbfde62e	-0.007748387
52	0xbebbc355	-0.36672464
53	0x3d715912	0.058922835
54	0xbd285b4c	-0.041102692
55	0x3eabb95a	0.3353985
56	0xbdf0f796	-0.11765973
57	0x3d508137	0.05090448
58	0xbda1638f	-0.078803174
59	0x3dcd950b	0.10038193
60	0x3dfe050c	0.12403306
61	0x3d9664bb	0.073434316
62	0xbd703130	-0.05864066
63	0x3dc6dd1e	0.097101435
64	0x3c605eca	0.0136944745
65	0x3d035ea1	0.032072667
66	0xbdfc667a	-0.12324233
67	0xbe055dec	-0.1302411
68	0x3b9e0b2a	0.004823108
69	0xbdd8cbbc	-0.10585734
70	0xbe006112	-0.1253703
71	0xbdd67460	-0.104714155
72	0xbdec6ebf	-0.11544561
73	0xbc91fe78	-0.017821535
74	0xbd9a28ce	-0.07527314
75	0xbc9b9eac	-0.01899656
76	0xbdb22ccd	-0.08699951
77	0xbe13c1ce	-0.144294
78	0xbcd87481	-0.02642274
79	0x3d22a780	0.03971052
80	0x3cfa01b3	0.030518388
81	0xbc43ebba	-0.011958057
82	0xbc3ea968	-0.011637069
83	0xbc211ea8	-0.009833969
84	0x3d288639	0.04114363
85	0xbcfaf819	-0.03063588
86	0x3d245478	0.04011962
87	0xbd1f6e72	-0.03892369
88	0x3d730b53	0.05933697
89	0xbcc217e7	-0.023693038
90	0x3d889c60	0.06670451
91	0x3cc6ca15	0.024266282
92	0x3cc9d44e	0.024637368
93	0xbd392b8b	-0.04520754
94	0xbdeaa1ea	-0.11456664
95	0x3d1da6b8	0.038489074
96	0xbd9f6398	-0.07782668
97	0x3dd5ce67	0.10439759
98	0xbd1d027f	-0.03833246
99	0x3dad1aa7	0.08452349
100	0xbf51dc3b	-0.8197667
101	0xbca6bbd9	-0.020353245
102	0x3df3879d	0.118911006
103	0x3da69cf3	0.081354044
104	0x3cd247b6	0.02566896
105	0xbc7a93a8	-0.015293993
106	0xbdd1c92b	-0.10243448
107	0xbf187fee	-0.59570205
108	0xbe43192c	-0.19052571
109	0x3e0721ba	0.1319646
110	0xbd08741d	-0.03331386
111	0xbdf69fde	-0.12042211
112	0xbbf45979	-0.007456955
113	0xbcfdd509	-0.030985372
114	0x3cac76dd	0.021052772
115	0xbd52fa39	-0.051508162
116	0xbe07c0de	-0.13257167
117	0xbe931d86	-0.28733462
118	0xbced9656	-0.02900235
119	0x3d935e64	0.07195738
120	0xbc9c2c22	-0.019064013
121	0x3d056f19	0.032576654
122	0xbd53b119	-0.051682565
123	0xbc964d0b	-0.018347284
124	0x3ccb38ff	0.024807451
125	0x3dd4b38e	0.1038581
126	0xbcbfa265	-0.023392865
127	0x3c84da5a	0.0162174
128	0xbe06526e	-0.13117382
129	0xbc672dde	-0.014110057
130	0xbd6a76d6	-0.057242237
131	0xbc9617e9	-0.018321948
132	0xbc9ada71	-0.01890299
133	0xbe06f1e0	-0.13178205
134	0x3d43e632	0.047826953
135	0xbdf86f88	-0.12130648
136	0xbc26eb35	-0.010187914
137	0x3c8086ce	0.01568928
138	0xbda8260f	-0.08210384
139	0xbd87ace0	-0.0662477
140	0x3d763eda	0.060118534
141	0xbb45ea93	-0.0030199632
142	0x3df8e5ea	0.121532276
143	0xbd94123c	-0.072300404
144	0x3d2a2361	0.041537646
145	0x3aac0859	0.0013125046
146	0xbd844369	-0.0645817
147	0xbd6440b5	-0.055725772
148	0xbf16934e	-0.5881852
149	0x3d657cb3	0.056027126
150	0xbd96e3a0	-0.07367635
151	0x3c772e05	0.0150866555
152	0xbd768a83	-0.06019069
153	0xbe8da9ef	-0.27668712
154	0x3d673568	0.056447417
155	0x3ba6dfcf	0.005092598
156	0xbce0cca7	-0.027441336
157	0x3d7282ee	0.059206896
158	0x3d333584	0.04375221
159	0x3dda3d9d	0.10656283
160	0xbd6d3be6	-0.05791845
161	0xbda5c552	-0.080942765
162	0x3dd2412d	0.102663375
163	0x3d0812aa	0.033220924
164	0x3e04ec4f	0.1298077
165	0x3d5429e4	0.051797763
166	0xbe0d581a	-0.1380314
167	0xbd49e524	-0.04929079
168	0xbd44f868	-0.04808846
169	0x3aec9949	0.0018051054
170	0xbc5eba9e	-0.013594298
171	0x3d3ffb98	0.046870798
172	0x3da6ad13	0.0813848
173	0xbd8de666	-0.06928711
174	0x3d1d1421	0.038349275
175	0x3def2dd0	0.1167866
176	0xbd53810b	-0.051636737
177	0x3bbbfdef	0.0057370584
178	0xbd2860b8	-0.041107863
179	0xbdf40f62	-0.119169965
180	0xbe8edb59	-0.27901724
181	0xbe001070	-0.1250627
182	0x3cdcc37a	0.02694868
183	0x3cc4661b	0.023974469
184	0xbe164f07	-0.14678584
185	0xbc3035f7	-0.010755054
186	0xbd3d578e	-0.046226077
187	0x3e00c39e	0.12574622
188	0x3d6a3744	0.05718161
189	0x3dfd69d0	0.12373698
190	0xbd89e965	-0.067339696
191	0xbc9db416	-0.01925091
192	0xb97353a7	-0.00023205449
193	0xbd57784a	-0.05260495
194	0x3c6ba496	0.014382502
195	0xbe0ac742	-0.13552573
196	0x3e1281c1	0.1430731
197	0xbe0181a5	-0.12647112
198	0xbd443a8e	-0.047907405
199	0xbe8e5c32	-0.27804714
200	0xbe1451ad	-0.14484282
201	0xbdf7e682	-0.12104513
202	0x3bfcb07c	0.0077114683
203	0xbce14ba4	-0.027501889
204	0x3d278d3d	0.04090618
205	0xbcc026a1	-0.02345592
206	0xbde5b823	-0.11216762
207	0xbd996a34	-0.0749096
208	0xbd719e4f	-0.058988865
209	0xbd930229	-0.071781464
210	0xbc247921	-0.010038645
211	0xbd66d537	-0.05635568
212	0xbd14250d	-0.036168147
213	0xbb71ac5d	-0.0036876418
214	0xb9f94ece	-0.00047551695
215	0x3c9c41b4	0.019074298
216	0x3cfe679f	0.03105527
217	0x3d85f01f	0.0653994
218	0x3d38b47b	0.045093995
219	0xbc73ccd9	-0.014880382
220	0xbcc23a0c	-0.02370932
221	0xbdfc2b19	-0.12312908
222	0xbdafee6a	-0.08590396
223	0x3d01c811	0.03168494
224	0xbcdb68c1	-0.026783349
225	0x3da3be6c	0.079953045
226	0xbdd6f3da	-0.1049573
227	0x3d98c320	0.07459092
228	0xba4e4199	-0.0007868051
229	0xbca2e1f6	-0.019883137
230	0x3d7b3739	0.06133196
231	0xbce0568c	-0.027385019
232	0xbdb5d250	-0.088780046
233	0x3d5f1edd	0.054472793
234	0xbc427248	-0.011868067
235	0xbd26b2b8	-0.040697783
236	0xbd933e19	-0.071895786
237	0xbcae5955	-0.021282831
238	0x3b6d8177	0.0036240497
239	0xbe057971	-0.13034607
240	0x3e0123b1	0.12611271
241	0x3d69dfeb	0.05709831
242	0x3d8ccd47	0.06875091
243	0xbd54b129	-0.051926766
244	0xbd9a5cf4	-0.07537261
245	0xbe303fa9	-0.17211784
246	0xbd7d6685	-0.06186535
247	0xbd5be508	-0.053685218
248	0xbd6b8dfd	-0.057508457
249	0xbdded013	-0.10879531
250	0xbc9a2089	-0.018814342
251	0xbdce9055	-0.10086123
252	0x3b721a64	0.0036942
253	0x3d630b49	0.055430684
254	0xbcc1b816	-0.02364735
255	0xbd0c8b49	-0.03431252

layer_3.bias f4 [128]
0	0xbf38bb90	-0.721612
1	0xbe50ea4f	-0.20401882
2	0xbe70b465	-0.23506315
3	0xbf303165	-0.6882537
4	0xbf3ae6cb	-0.7300841
5	0xbd4e20e0	-0.05032432
6	0xbe0161a7	-0.12634908
7	0xbdd3cee0	-0.10342193
8	0xbea1e33a	-0.31618673
9	0xc07c0b15	-3.9381764
10	0xbca746b2	-0.020419452
11	0xbffd3587	-1.978196
12	0xbea6c2fe	-0.32570642
13	0xc010c9b7	-2.2623117
14	0xbede643a	-0.43435842
15	0xbeb6a4f2	-0.35672718
16	0xbd32f677	-0.04369208
17	0xbf079116	-0.5295576
18	0xbf45d3f8	-0.77276564
19	0xbe7f172d	-0.24911185
20	0xbebfd784	-0.37469113
21	0xbf681271	-0.9065314
22	0xbc997ca3	-0.01873619
23	0xbfb0c18b	-1.3809065
24	0xbef49e00	-0.47776794
25	0xbf07946e	-0.5296086
26	0xbecdf8b8	-0.4022882
27	0xbf88f019	-1.0698272
28	0xbe4568d2	-0.19278267
29	0xbcafc0ed	-0.021454299
30	0xbc1cd8b1	-0.009573148
31	0xc013cf76	-2.3095374
32	0x41e328ca	28.394917
33	0xc0d72686	-6.7234526
34	0xbeb994e2	-0.362464
35	0xbe434cfe	-0.19072339
36	0xbd8effb1	-0.06982363
37	0xbf091312	-0.53544724
38	0xbf008d54	-0.5021565
39	0xbf8d24ed	-1.1026894
40	0xbcdbec94	-0.026846208
41	0xbf37a475	-0.71735317
42	0xbe2e7e57	-0.17040382
43	0xbeda1d37	-0.42600414
44	0xbf4f6528	-0.8101373
45	0xbdea8cc7	-0.114526324
46	0xbf561857	-0.8363089
47	0xbe83f8e6	-0.25775832
48	0xbeda4732	-0.42632443
49	0xc0b00aa8	-5.501301
50	0xbea77d7d	-0.32712927
51	0xbd1ef263	-0.038805377
52	0xc0746160	-3.8184433
53	0xbec79167	-0.3897812
54	0xbc33bba3	-0.010970029
55	0xbf641cad	-0.89106256
56	0xbf466dc1	-0.7751122
57	0xbea3ea12	-0.3201452
58	0xbf519067	-0.81860965
59	0xbe0def2e	-0.13860771
60	0xbf2711b5	-0.65261394
61	0xc0f7fb30	-7.7494125
62	0xbec7047d	-0.38870612
63	0xbf65057c	-0.89461493
64	0x418aec08	17.36525
65	0xbf1801c3	-0.5937769
66	0xbf75e576	-0.96053255
67	0xbeed1594	-0.46305525
68	0xbeebfee1	-0.46092895
69	0xbed586aa	-0.41704303
70	0xbe8d8ecb	-0.27648005
71	0xbdd5a756	-0.104323074
72	0x4091b2b6	4.5530653
73	0xbf9489c5	-1.1604544
74	0xbf27ccc7	-0.6554684
75	0xbad0bd07	-0.0015925475
76	0xbf70bbe3	-0.9403669
77	0xbbdadf42	-0.0066794464
78	0xbe10f9bf	-0.1415777
79	0xbf2569f4	-0.64614797
80	0xbfbfa846	-1.4973228
81	0xbf92ff5b	-1.1484178
82	0xbec7e5aa	-0.39042407
83	0xbeba9c79	-0.36447504
84	0xc00ce5e0	-2.2015305
85	0xc0beae6d	-5.958792
86	0xbcfdecd1	-0.030996712
87	0xbf3f500f	-0.74731535
88	0xbfa59fdd	-1.2939411
89	0xbe9d3aca	-0.30708915
90	0xbd51f3fc	-0.051258072
91	0xbf04005d	-0.51563054
92	0xbf0c305d	-0.54761297
93	0xbd02d9df	-0.03194606
94	0xbfbd288a	-1.4777997
95	0xbee2db52	-0.44307953
96	0xbe058a44	-0.13041025
97	0xbf906b9c	-1.128284
98	0xbeb329d1	-0.3499284
99	0xbf253cc1	-0.6454583
100	0xbf8585b4	-1.0431428
101	0xbea83a79	-0.3285711
102	0xbedfdf64	-0.4372512
103	0xbea919ad	-0.33027402
104	0xbf85aba6	-1.0443008
105	0xbd10ff80	-0.035399914
106	0xbf3f20de	-0.74659526
107	0xc0b8925a	-5.767865
108	0xbf49b045	-0.7878459
109	0xbed5f6cc	-0.41789854
110	0xbe1a0ca1	-0.1504388
111	0xbe35f418	-0.17768896
112	0xbe40b8f4	-0.18820554
113	0xbd167493	-0.036732268
114	0xba6bc5d1	-0.00089940155
115	0xc0a12a5f	-5.0364223
116	0xc080d868	-4.026417
117	0xbf7ac791	-0.97960764
118	0xbe59164b	-0.2119991
119	0xc0aeb211	-5.4592366
120	0xbde09a6d	-0.109669544
121	0xbea7ae2d	-0.32750073
122	0xbfe34c37	-1.7757634
123	0xbf324f7c	-0.69652534
124	0xbf2162ea	-0.63041556
125	0xbda6b603	-0.08140185
126	0xbdd63c6a	-0.10460742
127	0xbf1d37b7	-0.6141314

layer_out.weight f4 [1, 128]
0	0x3e907eb0	0.28221655
1	0x3d5458b8	0.05184242
2	0xbc899ac1	-0.016797425
3	0xbe5a5830	-0.21322703
4	0x3ded7576	0.115946695
5	0xbb587135	-0.003302646
6	0x3da5e507	0.08100324
7	0x3b252296	0.0025197617
8	0x3ea0b6a1	0.31389335
9	0x3ee2f224	0.44325364
10	0x3d2f72d2	0.04283411
11	0x3c9bb92b	0.019009193
12	0xbe918484	-0.28421414
13	0x3da214b6	0.079141065
14	0x3d9edbbb	0.07756754
15	0x3e7f19ba	0.24912158
16	0xbd27515d	-0.04084908
17	0xbe86476a	-0.2622636
18	0x3e97949f	0.29605576
19	0xbe3d73c6	-0.18501195
20	0x3ea1805a	0.31543237
21	0xbe5eaa59	-0.2174467
22	0x3bac086f	0.005250029
23	0x3c95d1fe	0.018288609
24	0xbe9c5b74	-0.30538523
25	0x3e547ba3	0.20750289
26	0xbe4bb4b7	-0.19893156
27	0x3e0cdd56	0.13756308
28	0x3d336c6a	0.043804564
29	0x3c0b0f08	0.00848747
30	0x3b1589cc	0.002281773
31	0xbdbfeb9d	-0.093711115
32	0x3eefaa69	0.468097
33	0xbe24b9bf	-0.16086482
34	0xbe9356d1	-0.28777173
35	0x3dfcd959	0.12346143
36	0x3ec56890	0.38556337
37	0xbe9bcd43	-0.3043004
38	0xbe7c1511	-0.24617411
39	0x3e01ebc6	0.12687597
40	0x3d080935	0.033211906
41	0x3c5420e6	0.012947297
42	0xbb0a6492	-0.0021117073
43	0xbe95aefd	-0.29235068
44	0x3e62dd1e	0.22154662
45	0x3da75624	0.08170727
46	0xbc1e699e	-0.009668736
47	0x3d91c5f4	0.07117835
48	0x3de61ea6	0.112363145
49	0x3fda0338	1.7032232
50	0x3b87b0af	0.0041409354
51	0xbc0d4a22	-0.008623632
52	0x3d06c288	0.032900363
53	0x3e912572	0.2834888
54	0xbc99f9e0	-0.018795907
55	0x3e2e32ae	0.1701152
56	0xbe462c7f	-0.19352911
57	0x3e3e9cb0	0.18614459
58	0xbe782649	-0.24233355
59	0xbd9cd9f9	-0.076587625
60	0xbdb56059	-0.088562675
61	0x3f31f745	0.6951793
62	0x3e9c2b3e	0.3050174
63	0x3e81193f	0.25214574
64	0x3fb1b655	1.3883768
65	0x3d5da104	0.054108635
66	0xbe891dd7	-0.26780578
67	0x3e141892	0.14462498
68	0x3e903459	0.28164938
69	0xbe9b32d4	-0.30312216
70	0xbe22863d	-0.1587152
71	0x3dd5c28b	0.10437497
72	0xc00e0303	-2.2189338
73	0xbd6d0c32	-0.05787296
74	0xbe8b7747	-0.2723944
75	0x3985c566	0.0002551481
76	0xbe393a3b	-0.1808862
77	0x3c07a9a1	0.008280189
78	0x3df6d592	0.12052454
79	0x3e8aa2bf	0.2707729
80	0x3db16c1b	0.086631976
81	0xbe6877c0	-0.22701931
82	0x3e552e7d	0.20818515
83	0xbe84f897	-0.2597091
84	0x3d5fd72a	0.054648556
85	0x3f3b72e6	0.73222196
86	0xbe079647	-0.1324092
87	0xbe8b2631	-0.27177575
88	0xbe4528d3	-0.19253854
89	0x3d56e53c	0.05246471
90	0x3eaa16dd	0.33220568
91	0xbe6471db	-0.22309057
92	0x3e1fa0fb	0.15588753
93	0xbda222be	-0.07916783
94	0xbe174653	-0.1477292
95	0x3ea29950	0.31757593
96	0x3e685671	0.22689225
97	0x3d5f0819	0.054451082
98	0xbe2480e6	-0.16064796
99	0x3e68ddcf	0.22740863
100	0x3dfbf9a0	0.123034716
101	0xbe9bf930	-0.30463552
102	0x3e81a5f3	0.25321922
103	0xbea190a6	-0.3155567
104	0x3e8e376a	0.27776653
105	0x3ba44dfb	0.005014179
106	0xbc36091e	-0.011110572
107	0x3e81efd3	0.25378284
108	0xbc894e29	-0.016760902
109	0xbe879e93	-0.2648817
110	0x3c7c614b	0.015404056
111	0x3e25760b	0.16158311
112	0xbe023d60	-0.12718725
113	0x3cf1dc33	0.029523944
114	0x3a1b7f4a	0.00059317483
115	0x3e868ad4	0.26277792
116	0xbe254f35	-0.16143496
117	0x3e7fa9af	0.24967073
118	0x3cb4bd81	0.022063019
119	0x3e5513bf	0.20808314
120	0x3d0a26b0	0.0337283
121	0xbe8a659f	-0.27030656
122	0x3e0abf33	0.13549499
123	0x3e82aa3f	0.25520512
124	0xbdf9350b	-0.1216832
125	0x3c0a209c	0.008430626
126	0x3c9c1119	0.019051122
127	0x3d9e4cbf	0.07729482
